mushroom_model.pth (torch, 5225 bytes, 6 tensors)

layer1.weight f4 [16, 22]
-0.07115146 -0.03656041 0.12873408 -0.024063602 -0.48971087 0.18544455 -0.32710165 -0.29799178
-0.045934316 -0.71864706 0.62450325 0.30751535 0.22893643 0.034095414 -0.07037176 -0.13846833
-0.29295808 0.18270081 0.25710315 0.07995598 -0.08638707 0.22869046 -0.06493798 -0.0061752587
-0.008146597 0.36366 0.09287225 0.064773746 0.2662281 -0.004732733 0.0048354194 0.45918068
-0.09214602 0.031441793 -0.0810994 -0.16646616 -0.014055833 0.14116177 -0.19369088 -0.2775134
0.12991187 -0.012796757 0.2745302 -0.6827527 -0.12837435 0.10492046 0.06220268 0.27042866
-0.18065274 -0.09518287 -0.10190313 0.27473634 0.042262647 -0.39865407 -0.16950502 0.099978015
-0.16149057 0.0683776 0.26506367 -0.11078675 0.24335182 0.16060789 0.10563757 -0.32931945
0.023250118 0.20506787 -0.080596656 0.08151303 0.21058461 -0.16092703 0.29479757 -0.046745595
-0.34003398 0.5468524 -0.062237244 -0.7659783 0.010647855 -0.07705955 0.26900172 0.04147637
-0.27667612 -0.04652443 0.05703593 -0.14872132 -0.037313532 0.27608287 -0.15949999 -0.17575772
0.25484952 -0.21914679 0.1734745 -0.581068 -0.12977819 0.26784122 -0.11827347 0.32244867
-0.022232411 -0.35055503 -0.38580826 0.023938134 -0.23360354 -0.09267806 -0.067860775 -0.051431783
-0.16244552 0.1937287 0.01965071 -0.29221928 0.24265324 -0.22538778 0.1506656 0.2656181
-0.020080762 -0.120296374 0.089513235 0.063997634 -0.06838567 0.5203635 0.0851215 -0.023295475
-0.4919207 0.008011131 0.0062193093 0.107859574 -0.017405191 -0.14421584 0.33457723 0.12838474
-0.21861479 -0.22721784 0.1485956 0.13379662 0.10316085 -0.18256146 0.025310718 -0.0799276
-0.10647498 -0.011684322 -0.084170945 -0.19025427 0.033094727 0.20083861 0.05604015 -0.033660017
0.028903937 -0.097878136 -0.021505406 -0.095612064 0.15599309 0.11218722 -0.18741146 -0.11507694
-0.19585916 -0.11442124 0.056037642 0.101954624 -0.2748696 0.28800023 0.054967046 0.005843531
-0.09446103 0.5502218 0.05502505 -0.34491003 0.14766388 -0.14703053 0.22305809 0.050861098
0.13651074 -0.20414378 0.26726753 0.14835134 0.20394152 0.023290904 -0.27603403 -0.20541993
0.011399395 0.20738995 0.093244284 -0.17156355 0.10455895 0.13148922 -0.24472773 0.5205624
-0.13276656 0.04427275 -0.4631226 -0.27878448 0.012471214 -0.031476185 0.069054194 -0.10568509
-0.08546797 0.28446445 0.17485471 -0.46007177 0.103834316 0.13182463 0.12579924 -0.031355757
0.17596778 0.26886886 0.044390153 0.016570183 -0.020716013 0.4820522 -7.224159e-05 -0.27408606
-0.35490328 0.22989845 -0.0069257775 0.28857973 0.013247297 -0.15211453 0.28579533 0.40190357
0.0556902 -0.42652774 0.16741231 0.19242623 0.13801722 -0.19864132 0.09026984 -0.025423367
0.06983009 -0.015515894 0.3441398 -0.5407984 0.059869938 0.48518118 0.31263587 0.03817279
0.055829387 0.22466378 0.034681298 0.20758097 -0.27351266 -0.14033021 -0.16621573 0.2497907
-0.04477654 -0.13309254 0.044748537 -0.05899455 -0.20212919 0.15058953 -0.18268509 -0.14111026
-0.044548392 0.0034677866 0.01101305 -0.034003217 -0.14621308 -0.0150136985 0.16023734 0.055817407
00000000: dbb7 91bd 5ec0 15bd ded2 033e 0821 c5bc
00000010: 62bb fabe 2de5 3d3e de79 a7be 6192 98be
00000020: 9f25 3cbd 41f9 37bf 72df 1f3f a772 9d3e
00000030: 506e 6a3e a2a7 0b3d 121f 90bd a4ca 0dbe
00000040: 9afe 95be ec15 3b3e 06a3 833e f6bf a33d
00000050: b4eb b0bd d52d 6a3e 34fe 84bd d359 cabb
00000060: 4e79 05bc a531 ba3e ce33 be3d 19a8 843d
00000070: 0d4f 883e 0b15 9bbb 7072 9e3b bb19 eb3e
00000080: 0db7 bcbd 1cc9 003d 7117 a6bd 1b76 2abe
00000090: 704a 66bc b68c 103e e756 46be 3d16 8ebe
000000a0: 9e07 053e 7da9 51bc 398f 8c3e e2c8 2ebf
000000b0: 9174 03be 8ae0 d63d 3dc8 7e3d a075 8a3e
000000c0: 08fd 38be 3def c2bd 97b2 d0bd 3eaa 8c3e
000000d0: 991b 2d3d 631c ccbe b992 2dbe 46c1 cc3d
000000e0: c95d 25be 8e09 8c3d 6db6 873e 2ae4 e2bd
000000f0: 3831 793e 6576 243e 8358 d83d 8f9c a8be
00000100: 0877 be3c 50fd 513e dc0f a5bd 4ef0 a63d
00000110: 7ea3 573e 0eca 24be b5ef 963e 4f78 3fbd
00000120: ef18 aebe 85fe 0b3f 7bec 7ebd 2717 44bf
00000130: 5774 2e3c 66d1 9dbd 98ba 893e 20e3 293d
00000140: 7ea8 8dbe 6790 3ebd 829e 693d 674a 18be
00000150: 13d6 18bd bc5a 8d3e f753 23be d5f9 33be
00000160: a37b 823e 0468 60be 4da3 313e dfc0 14bf
00000170: 93e4 04be 7c22 893e 5c39 f2bd fe17 a53e
00000180: bf20 b6bc f37b b3be a988 c5be e819 c43c
00000190: c435 6fbe ffcd bdbd 97fa 8abd 22aa 52bd
000001a0: 1e58 26be d160 463e 87fa a03c c49d 95be
000001b0: 177a 783e 0ecc 66be 1548 1a3e 18ff 873e
000001c0: 6980 a4bc f25d f6bd b752 b73d 3111 833d
000001d0: c90d 8cbd 8b36 053f 2e54 ae3d 27d6 bebc
000001e0: 08dd fbbe 1e41 033c 59cb cb3b 7be5 dc3d
000001f0: 5595 8ebc 51ad 13be b54d ab3e 4a77 033e
00000200: 8edc 5fbe cbab 68be 7229 183e fb01 093e
00000210: ff45 d33d 64f1 3abe 6c58 cf3c 15b1 a3bd
00000220: 8e0f dabd 996f 3fbc d161 acbd 04d2 42be
00000230: 568e 073d a3a8 4d3e 5b8a 653d 16df 09bd
00000240: f3c7 ec3c 5574 c8bd 1b2c b0bc 42d0 c3bd
00000250: a7bc 1f3e 6ac2 e53d cae8 3fbe 75ad ebbd
00000260: 4e8f 48be af55 eabd ba87 653d 96cd d03d
00000270: b5bb 8cbe c474 933e 2025 613d 177b bf3b
00000280: c974 c1bd 56db 0c3f f261 613d 0c98 b0be
00000290: 3335 173e 2c8f 16be 5769 643e ba53 503d
000002a0: 79c9 0b3e 110b 51be 4ad7 883e 6ae9 173e
000002b0: 0cd6 503e 91cc be3c 5554 8dbe 9a59 52be
000002c0: 87c4 3a3c 085e 543e dcf6 be3d 5bae 2fbe
000002d0: 0123 d63d 1ca5 063e e899 7abe 9443 053f
000002e0: f5f3 07be 5857 353d 681e edbe d7bc 8ebe
000002f0: 1054 4c3c 2ced 00bd 496c 8d3d 6d71 d8bd
00000300: d509 afbd 53a5 913e 1d0d 333e 878e ebbe
00000310: 16a7 d43d 09fd 063e 84d1 003e e56e 00bd
00000320: e630 343e 2ea9 893e 73d2 353d 31be 873c
00000330: a1b4 a9bc 8ccf f63e 6980 97b8 0255 8cbe
00000340: e2b5 b5be 806a 6b3e a2f1 e2bb b9c0 933e
00000350: 310b 593c e9c3 1bbe c453 923e 4ec6 cd3e
00000360: 681b 643d d861 dabe 226e 2b3e 620b 453e
00000370: 6354 0d3e a168 4bbe 65df b83d aa44 d0bc
00000380: 1403 8f3d 6036 7ebc 1833 b03e c471 0abf
00000390: 2e3a 753d ab69 f83e cf11 a03e 125b 1c3d
000003a0: 5bad 643d 430e 663e fa0d 0e3d 1b90 543e
000003b0: da09 8cbe b9b2 0fbe 7534 2abe 22c9 7f3e
000003c0: 9b67 37bd 6949 08be 3e4a 373d 45a4 71bd
000003d0: f4fa 4ebe 2434 1a3e cd11 3bbe 357f 10be
000003e0: 6078 36bd ce43 633b 1470 343c f546 0bbd
000003f0: e2b8 15be 04fc 75bc 4215 243e cba0 643d

layer1.bias f4 [16]
0.00026040955 -0.21118046 0.025295435 0.06870054 0.22478552 0.02400301 -0.047033656 -0.059410375
0.27429396 0.19414465 0.23312254 -0.0051931436 0.11530827 -0.09406665 -0.17885996 0.1660419
00000000: 9487 8839 b13f 58be 5f38 cf3c deb2 8c3d
00000010: 2d2e 663e f6a1 c43c 5da6 40bd 4b58 73bd
00000020: 4270 8c3e dbcd 463e adb7 6e3e 3f2b aabb
00000030: be26 ec3d 04a6 c0bd 1127 37be e306 2a3e

layer2.weight f4 [8, 16]
-0.041773155 0.56209266 -0.38219965 -0.23344393 -0.24479827 0.30503494 -0.09697667 -0.24362329
0.0071160244 -0.07137056 -0.022430409 -0.032419983 0.19771822 0.39484298 0.4022002 -0.052486967
-0.7623402 -0.51623166 0.105788924 0.10829272 0.74209654 0.2354289 0.0030906498 0.21794535
0.43356794 0.38211086 -0.33276406 -0.08970757 -0.019873142 -0.060992714 -0.5800531 0.0698628
0.72142696 0.31218204 0.10545478 -0.27049243 -0.38153338 -0.25026447 0.012289166 -0.22888647
-0.15976472 0.16994047 0.15721154 0.086848915 0.13608862 0.29829156 0.24037224 -0.026298827
0.6418531 0.4682898 -0.22227217 -0.35541862 -0.4497477 0.14071104 -0.1975072 -0.10843856
0.028651834 -0.024542471 0.45377916 -0.2727698 0.24327126 0.07337692 -0.08050624 -0.12545398
-0.5501678 -0.46870372 0.012094301 0.23619093 0.7895547 0.14929515 -0.17576495 0.33323598
0.50909567 0.28424996 -0.35945883 -0.18794075 -0.050059598 -0.2636422 -0.43739095 0.34088787
-0.6214358 -0.2635158 0.4231515 0.6647214 0.74987555 0.11334282 -0.01944995 0.7291463
0.46270517 0.02420392 -0.07902973 -0.14215523 -0.07492903 -0.2241218 -0.3096234 0.29377407
0.15063274 -0.2435858 -0.20801929 0.08292642 -0.13853067 -0.19081599 -0.21216607 -0.2439414
0.103847414 -0.23034072 0.09200764 0.13427573 -0.16564053 -0.22204152 -0.051882416 -0.10385084
0.5009547 0.4276135 -0.23423049 -0.4806633 -0.21963055 -0.13949884 0.11215404 -0.5099212
-0.30819887 0.11413724 0.4529543 0.19779652 0.29105705 0.30967215 0.16821222 0.06461099
00000000: 541a 2bbd 4ee5 0f3f acaf c3be ed0b 6fbe
00000010: 66ac 7abe 8a2d 9c3e b49b c6bd 6278 79be
00000020: 8a2d e93b ba2a 92bd fabf b7bc d1ca 04bd
00000030: a576 4a3e dc28 ca3e 2fed cd3e 93fc 56bd
00000040: ba28 43bf c227 04bf dda7 d83d 93c8 dd3d
00000050: 0afa 3d3f 4614 713e 808c 4a3b 112d 5f3e
00000060: 9efc dd3e 09a4 c33e 0d60 aabe 9ab8 b7bd
00000070: 00cd a2bc 7fd3 79bd 5c7e 14bf 3a14 8f3d
00000080: 70af 383f 53d6 9f3e adf8 d73d fc7d 8abe
00000090: 5858 c3be aa22 80be 8058 493c 3761 6abe
000000a0: 5d99 23be e004 2e3e 10fc 203e d8dd b13d
000000b0: d15a 0b3e acb9 983e 2424 763e a370 d7bc
000000c0: 7c50 243f aec3 ef3e 519b 63be 6ef9 b5be
000000d0: 5545 e6be 8e16 103e 543f 4abe 0915 debd
000000e0: 40b7 ea3c 4b0d c9bc be55 e83e 7ca8 8bbe
000000f0: 1a1c 793e a346 963d 75e0 a4bd 0277 00be
00000100: ccd7 0cbf eff9 efbe 2d27 463c 09dc 713e
00000110: 4220 4a3f d4e0 183e bafb 33be e89d aa3e
00000120: 1854 023f 3689 913e fd0a b8be 8a73 40be
00000130: 4b0b 4dbd 1cfc 86be b5f1 dfbe db88 ae3e
00000140: 6b16 1fbf 8beb 86be 50a7 d83e 2f2b 2a3f
00000150: d8f7 3f3f 4820 e83d 8055 9fbc 55a9 3a3f
00000160: b1e7 ec3e 4d47 c63c 57da a1bd 2491 11be
00000170: 6474 99bd 2f80 65be f586 9ebe 8e69 963e
00000180: 783f 1a3e 8e6e 79be 0203 55be 54d5 a93d
00000190: fcda 0dbe 4465 43be 1042 59be c6cb 79be
000001a0: f4ad d43d 70de 6bbe 806e bc3d 947f 093e
000001b0: ac9d 29be da5e 63be a882 54bd c0af d4bd
000001c0: 913e 003f 28f0 da3e 1eda 6fbe 8019 f6be
000001d0: d5e6 60be c9d8 0ebe 04b1 e53d 328a 02bf
000001e0: 3ecc 9dbe c9c0 e93d a0e9 e73e 2c8b 4a3e
000001f0: 6e05 953e 598d 9e3e d33f 2c3e c452 843d

layer2.bias f4 [8]
-0.29990733 0.10103606 -0.16936664 -0.091398686 0.14943038 0.260346 0.08293736 0.06432225
00000000: 748d 99be feeb ce3d 736e 2dbe 3c2f bbbd
00000010: 4704 193e 124c 853e 10db a93d 62bb 833d

output.weight f4 [2, 8]
0.3679207 -0.6837468 0.37266287 0.2885626 -0.47424018 -0.12014583 -0.1603414 0.5758446
-0.30237198 0.48146337 -0.613092 -0.33149382 0.5953413 0.6029947 0.30604103 -0.27865162
00000000: 1a60 bc3e 080a 2fbf abcd be3e 7abe 933e
00000010: 9ccf f2be 040f f6bd 8930 24be 8d6a 133f
00000020: 80d0 9abe 5e82 f63e 99f3 1cbf 8fb9 a9be
00000030: 4a68 183f dc5d 1a3f 69b1 9c3e 6dab 8ebe

output.bias f4 [2]
-0.12784557 0.31653818
00000000: f3e9 02be 4b11 a23e
